ipynb/model_2_quantized.tflite (tflite, 2752 bytes, 3 tensors)

sequential_1/dense_2/MatMul i1 [16, 1] scale=0.004356499 zero_point=0
0.13069497 0.056634486 0.5271364 0.06970398 -0.12633847 0.34851992 -0.22653794 -0.27881593
-0.021782495 -0.5184234 0.3354504 -0.19604245 0.26138994 0.08277348 0.27881593 -0.55327535
00000000: 1e0d 7910 e350 ccc0 fb89 4dd3 3c13 4081

sequential_1/dense_3/MatMul i1 [16, 16] scale=0.011970667 zero_point=0
-0.37109068 -0.34714934 -0.08379467 -0.37109068 0.059853338 -0.33517867 -0.17956 0.0
0.38306135 -0.43094403 0.31123734 -0.17956 -0.33517867 0.38306135 -0.08379467 -0.011970667
-0.323208 0.15561867 0.09576534 1.1252427 0.15561867 -0.059853338 -0.287296 0.37109068
-0.22744268 0.33517867 0.023941334 0.41897336 0.31123734 1.2569201 -0.22744268 0.29926667
0.38306135 -0.34714934 0.34714934 -1.07736 0.31123734 0.27532536 0.2633547 -0.10773601
-0.04788267 0.323208 0.0 -0.2633547 0.22744268 -1.3766267 0.43094403 -0.33517867
-0.74218136 0.071824 0.5267094 -0.09576534 -0.23941335 -0.96962404 0.39503202 0.09576534
0.13167734 0.13167734 -1.2090374 0.23941335 0.13167734 -0.22744268 0.119706675 0.4070027
-0.17956 -0.33517867 0.13167734 1.0294774 0.15561867 0.34714934 0.071824 0.39503202
-0.25138402 0.4070027 0.323208 0.143648 -0.31123734 1.5202748 0.19153067 0.17956
-0.035912 -0.23941335 0.119706675 -0.011970667 -0.17956 -0.13167734 0.15561867 0.20350134
0.29926667 -0.31123734 0.04788267 0.13167734 -0.43094403 -0.29926667 0.29926667 -0.43094403
0.323208 -0.09576534 0.323208 0.8020347 -0.023941334 0.09576534 0.22744268 -0.34714934
0.19153067 -0.39503202 0.17956 0.21547201 0.34714934 1.4963334 -0.071824 -0.41897336
0.2633547 -0.34714934 -0.16758934 0.04788267 -0.33517867 0.39503202 -0.37109068 0.23941335
-0.43094403 -0.25138402 -0.27532536 -0.10773601 0.4070027 -0.27532536 -0.33517867 -0.023941334
0.33517867 -0.04788267 -0.2633547 -0.25138402 -0.13167734 -0.19153067 0.37109068 0.19153067
-0.08379467 -0.21547201 0.08379467 -0.20350134 0.22744268 0.34714934 -0.31123734 0.035912
0.4070027 -0.22744268 -0.19153067 -0.15561867 -0.143648 -0.41897336 -0.33517867 0.23941335
0.37109068 0.16758934 -0.2633547 0.38306135 0.10773601 0.17956 -0.19153067 0.08379467
-0.23941335 -0.09576534 0.035912 0.67035735 -0.22744268 0.323208 0.08379467 0.33517867
0.011970667 -0.33517867 -0.22744268 -0.10773601 -0.023941334 0.9097707 -0.035912 0.2633547
-0.4070027 0.5147387 -0.119706675 -0.9935654 -0.19153067 0.059853338 -0.23941335 -0.43094403
0.023941334 -0.04788267 0.09576534 -0.15561867 -0.20350134 -0.86188805 0.38306135 0.059853338
-0.35912 -0.50276804 -0.17956 -0.23941335 0.10773601 -0.143648 0.071824 -0.41897336
0.011970667 0.0 0.21547201 -0.29926667 -0.67035735 -0.10773601 -1.2329787 0.43094403
0.16758934 -0.17956 0.323208 -0.8738587 -0.059853338 0.13167734 0.011970667 -0.27532536
-0.059853338 0.15561867 -0.08379467 0.35912 -0.323208 -1.041448 0.37109068 0.143648
0.39503202 -0.17956 0.323208 0.287296 0.143648 -0.79006404 0.059853338 0.39503202
-0.17956 0.2633547 -0.04788267 -0.287296 -0.39503202 -0.27532536 0.023941334 -0.39503202
0.059853338 0.143648 -0.21547201 0.9935654 -0.011970667 0.119706675 0.39503202 -0.011970667
-0.34714934 -0.011970667 0.6224747 0.15561867 -0.059853338 1.400568 0.37109068 -0.29926667
00000000: e1e3 f9e1 05e4 f100 20dc 1af1 e420 f9ff
00000010: e50d 085e 0dfb e81f ed1c 0223 1a69 ed19
00000020: 20e3 1da6 1a17 16f7 fc1b 00ea 138d 24e4
00000030: c206 2cf8 ecaf 2108 0b0b 9b14 0bed 0a22
00000040: f1e4 0b56 0d1d 0621 eb22 1b0c e67f 100f
00000050: fdec 0aff f1f5 0d11 19e6 040b dce7 19dc
00000060: 1bf8 1b43 fe08 13e3 10df 0f12 1d7d fadd
00000070: 16e3 f204 e421 e114 dceb e9f7 22e9 e4fe
00000080: 1cfc eaeb f5f0 1f10 f9ee 07ef 131d e603
00000090: 22ed f0f3 f4dd e414 1f0e ea20 090f f007
000000a0: ecf8 0338 ed1b 071c 01e4 edf7 fe4c fd16
000000b0: de2b f6ad f005 ecdc 02fc 08f3 efb8 2005
000000c0: e2d6 f1ec 09f4 06dd 0100 12e7 c8f7 9924
000000d0: 0ef1 1bb7 fb0b 01e9 fb0d f91e e5a9 1f0c
000000e0: 21f1 1b18 0cbe 0521 f116 fce8 dfe9 02df
000000f0: 050c ee53 ff0a 21ff e3ff 340d fb75 1fe7

sequential_1/dense_4/MatMul i1 [1, 16] scale=0.013161192 zero_point=0
-0.3027074 0.14477311 -0.53960884 1.6714714 0.57909244 -0.35535216 0.19741787 -0.22374026
0.27638504 0.15793431 0.0 -0.026322383 -1.1581849 -0.25006264 -0.89496106 1.3950863
00000000: e90b d77f 2ce5 0fef 150c 00fe a8ed bc6a
