ipynb/model_2.tflite (tflite, 2932 bytes, 5 tensors)

dense_3/bias f4 [16]
0.0 -0.31413025 -0.10292907 0.3785192 -0.16704108 -0.026752394 -0.18605663 0.0
-0.034005128 0.0 -0.2225584 0.0021644672 0.29135555 -0.037050847 -0.11538371 -0.5474164
00000000: 0000 0000 aed5 a0be 7acc d2bd 45cd c13e
00000010: d10c 2bbe d627 dbbc a185 3ebe 0000 0000
00000020: f648 0bbd 0000 0000 59e6 63be bcd9 0d3b
00000030: 8e2c 953e a1c2 17bd 4b4e ecbd 7b23 0cbf

dense_2/bias f4 [16]
-0.1700913 -0.0050613573 0.090504885 -0.35237592 0.0 -0.575774 0.0 0.0
0.0 0.0 -0.77612704 0.0 -0.031405672 -0.4620084 -0.19276296 0.0
00000000: 6a2c 2ebe bed9 a5bb a05a b93d 9e6a b4be
00000010: 0000 0000 ed65 13bf 0000 0000 0000 0000
00000020: 0000 0000 0000 0000 43b0 46bf 0000 0000
00000030: 3ca3 00bd 5d8c ecbe a763 45be 0000 0000

sequential_1/dense_2/MatMul f4 [16, 1]
0.13032623 0.055693112 0.52930856 0.07037564 -0.124688804 0.34642175 -0.22648996 -0.28029612
-0.020894587 -0.5179503 0.33651152 -0.19659024 0.26277107 0.08478322 0.27928397 -0.55327535
00000000: 3d74 053e 761e 643d c480 073f 1b21 903d
00000010: d85c ffbd 315e b13e fcec 67be f982 8fbe
00000020: 202b abbc 6498 04bf 3d4b ac3e f44e 49be
00000030: ee89 863e d3a2 ad3d 4ffe 8e3e 74a3 0dbf

sequential_1/dense_3/MatMul f4 [16, 16]
-0.37339061 -0.35026816 -0.087557614 -0.36924168 0.062098116 -0.3345788 -0.18479568 0.0037710965
0.3872445 -0.42983028 0.30899206 -0.17565557 -0.33396724 0.37787005 -0.08855212 -0.016345203
-0.32017365 0.15852183 0.1009338 1.1201452 0.15786073 -0.0623766 -0.284054 0.36993667
-0.22259596 0.33530667 0.023990978 0.41921756 0.3066233 1.2520028 -0.2222794 0.30033728
0.37822247 -0.3448563 0.3457379 -1.0815917 0.3146908 0.27831256 0.26886705 -0.10822943
-0.042858124 0.32617006 0.0012293739 -0.26718128 0.23277391 -1.3784634 0.43509632 -0.33525288
-0.7405478 0.07642476 0.52367777 -0.0933858 -0.2449682 -0.96450686 0.39919016 0.0972673
0.13732395 0.1321325 -1.2036774 0.23697868 0.1360533 -0.23220763 0.1235168 0.40684685
-0.17700937 -0.3390637 0.13519189 1.0315888 0.15257296 0.35035953 0.07125917 0.39746043
-0.24981235 0.4017184 0.32766375 0.14529839 -0.31326947 1.5202748 0.19407806 0.1792585
-0.0359009 -0.23735943 0.1222539 -0.0072715553 -0.173657 -0.13702717 0.15912065 0.20107111
0.3004819 -0.30971295 0.053826872 0.12684491 -0.4326719 -0.29981914 0.3016644 -0.43173945
0.31877184 -0.09694641 0.31942168 0.79965436 -0.026441902 0.10158762 0.23067549 -0.34591955
0.19239524 -0.3910932 0.1823989 0.21953455 0.34611997 1.5003129 -0.06897861 -0.4243735
0.25820616 -0.35007426 -0.16375738 0.050388962 -0.3356749 0.39160803 -0.36688218 0.23976198
-0.4326872 -0.2563682 -0.27399904 -0.11118215 0.40680513 -0.27581435 -0.3374673 -0.024326563
0.33621928 -0.049135055 -0.26125702 -0.25721055 -0.13694692 -0.19136667 0.3705419 0.1959131
-0.08011547 -0.21451601 0.089036554 -0.20801479 0.23094188 0.34439188 -0.30529663 0.04055983
0.41100797 -0.23299298 -0.19698048 -0.15354979 -0.13881326 -0.41815102 -0.33296055 0.24041161
0.36640438 0.17036667 -0.2676003 0.37828466 0.10243794 0.17414275 -0.18773797 0.082050174
-0.24205975 -0.09328331 0.032999244 0.672522 -0.2215134 0.31787825 0.087510616 0.33865622
0.008841127 -0.33606112 -0.22595944 -0.10504606 -0.020427281 0.9121006 -0.040260985 0.2618194
-0.40197483 0.51126623 -0.12414101 -0.9927052 -0.19279252 0.055201095 -0.23670904 -0.42962286
0.021789372 -0.048867017 0.08981569 -0.15604094 -0.20355807 -0.86350346 0.38115948 0.055833846
-0.35987344 -0.50659627 -0.17506042 -0.2403898 0.102668196 -0.14783245 0.07121667 -0.4151599
0.011300474 0.0028897524 0.21549264 -0.29667026 -0.67605615 -0.1131506 -1.2347258 0.4268305
0.16917747 -0.18521622 0.32546467 -0.87903774 -0.06439406 0.13697013 0.00714615 -0.26983088
-0.059142828 0.15024093 -0.084058784 0.35879442 -0.32169718 -1.0459322 0.3663398 0.14612117
0.39669412 -0.17819533 0.32563117 0.2824173 0.14736107 -0.7925435 0.06485593 0.3975518
-0.17371646 0.26105705 -0.049294822 -0.28769535 -0.38913077 -0.2728486 0.027854282 -0.39591175
0.0623804 0.14092892 -0.21238817 0.9942927 -0.01518479 0.114518486 0.39901003 -0.015833974
-0.34190378 -0.0118454695 0.62514013 0.15383568 -0.06539601 1.3966904 0.37456942 -0.29951984
00000000: 0e2d bfbe 5956 b3be 6851 b3bd 3f0d bdbe
00000010: 985a 7e3d ea4d abbe 143b 3dbe 8024 773b
00000020: e944 c63e b712 dcbe 3534 9e3e 0edf 33be
00000030: c1fd aabe 2f78 c13e d05a b5bd 60e6 85bc
00000040: cded a3be 8c53 223e 61b6 ce3d eb60 8f3f
00000050: 3ea6 213e 9b7e 7fbd 876f 91be 5768 bd3e
00000060: 32f0 63be 51ad ab3e ba88 c43c afa3 d63e
00000070: bbfd 9c3e a141 a03f 369d 63be cfc5 993e
00000080: 60a6 c13e 0191 b0be 8f04 b13e 9971 8abf
00000090: 271f a13e fc7e 8e3e f1a8 893e 64a7 ddbd
000000a0: 008c 2fbd c3ff a63e f122 a13a fccb 88be
000000b0: 495c 6e3e 7d71 b0bf f2c4 de3e 44a6 abbe
000000c0: 8a94 3dbf 9684 9c3d bf0f 063f 0e41 bfbd
000000d0: f2d8 7abe ece9 76bf a762 cc3e 1434 c73d
000000e0: a69e 0c3e be4d 073e 1a12 9abf 8aaa 723e
000000f0: 8e51 0b3e d6c7 6dbe 60f6 fc3d 3b4e d03e
00000100: f241 35be c299 adbe be6f 0a3e 1a0b 843f
00000110: 163c 1c3e 5362 b33e 54f0 913d ef7f cb3e
00000120: cfce 7fbe 09ae cd3e 8bc3 a73e 1ac9 143e
00000130: db64 a0be 5d98 c23f 66bc 463e 8a8f 373e
00000140: d20c 13bd 5a0e 73be 4160 fa3d 3a46 eebb
00000150: 24d3 31be da50 0cbe 86f0 223e 96e5 4d3e
00000160: c3d8 993e b292 9ebe 9179 5c3d a2e3 013e
00000170: 2c87 ddbe e581 99be c273 9a3e f40c ddbe
00000180: 1036 a33e d78b c6bd 3d8b a33e 26b6 4c3f
00000190: b09c d8bc 2c0d d03d 3236 6c3e 5e1c b1be
000001a0: 4203 453e 5e3d c8be c7c6 3a3e aacd 603e
000001b0: a336 b13e 410a c03f a844 8dbd 7c47 d9be
000001c0: 9933 843e ef3c b3be 04b0 27be a864 4e3d
000001d0: 95dd abbe d980 c83e fbd7 bbbe 2a84 753e
000001e0: 2d89 ddbe b142 83be 9a49 8cbe 78b3 e3bd
000001f0: c348 d03e 8a37 8dbe 84c8 acbe 8048 c7bc
00000200: ef24 ac3e d741 49bd 7bc3 85be 1ab1 83be
00000210: d03b 0cbe a0f5 43be abb7 bd3e 729d 483e
00000220: 9413 a4bd 16aa 5bbe cc58 b63d d401 55be
00000230: 077c 6c3e 2254 b03e d74f 9cbe 1022 263d
00000240: a36f d23e b695 6ebe 40b5 49be 283c 1dbe
00000250: 1025 0ebe e417 d6be ce79 aabe 762e 763e
00000260: 5b99 bb3e 9a74 2e3e e802 89be 87ae c13e
00000270: fcca d13d 7a52 323e 623e 40be ec09 a83d
00000280: 83de 77be 520b bfbd 372a 073d 672a 2c3f
00000290: 69d4 62be f0c0 a23e c438 b33d 5964 ad3e
000002a0: 60da 103c 3410 acbe e961 67be 6422 d7bd
000002b0: 1d57 a7bc 6d7f 693f b4e8 24bd 310d 863e
000002c0: a5cf cdbe 58e2 023f a43d febd ee21 7ebf
000002d0: 676b 45be 8b1a 623d db63 72be 87f7 dbbe
000002e0: a07f b23c c828 48bd 4af1 b73d 32c9 1fbe
000002f0: 8771 50be 900e 5dbf 5627 c33e 08b2 643d
00000300: 5541 b8be 4bb0 01bf 0a43 33be be28 76be
00000310: b443 d23d 6461 17be 0cda 913d d78f d4be
00000320: a025 393c 0062 3d3b 1aaa 5c3e 2ae5 97be
00000330: 0412 2dbf 80bb e7bd 7f0b 9ebf 8789 da3e
00000340: dc3c 2d3e 52a9 3dbe 4ea3 a63e 9e08 61bf
00000350: 08e1 83bd e641 0c3e 402a ea3b 4627 8abe
00000360: c03f 72bd c2d8 193e 0327 acbd e7b3 b73e
00000370: 7eb5 a4be 1be1 85bf e490 bb3e caa0 153e
00000380: 7e1b cb3e d678 36be 21b9 a63e 0099 903e
00000390: d2e5 163e 21e4 4abf 30d3 843d e98b cb3e
000003a0: bae2 31be 45a9 853e 5ee9 49bd ce4c 93be
000003b0: 263c c7be d0b2 8bbe aa2e e43c f2b4 cabe
000003c0: 9782 7f3d ac4f 103e 497c 59be f789 7e3f
000003d0: a0c9 78bc ab88 ea3d 0b4b cc3e 40b6 81bc
000003e0: 030e afbe 8013 42bc 2f09 203f 1a87 1d3e
000003f0: 58ee 85bd c0c6 b23f 90c7 bf3e aa5a 99be

sequential_1/dense_4/MatMul f4 [1, 16]
-0.30839106 0.14698587 -0.5371998 1.6714714 0.5782694 -0.35301098 0.19429477 -0.21721712
0.27001414 0.16386592 0.0027045296 -0.028783178 -1.1570587 -0.25402063 -0.8885914 1.3916361
00000000: 6fe5 9dbe 7783 163e ed85 09bf c6f2 d53f
00000010: 7709 143f dbbd b4be 35f5 463e 2a6e 5ebe
00000020: 4b3f 8a3e 78cc 273e 7a3e 313b b3ca ebbc
00000030: 801a 94bf fe0e 82be ba7a 63bf 2221 b23f
