ipynb/sine_model.tflite (tflite, 2968 bytes, 5 tensors)

dense_39/bias f4 [16]
-0.055106923 0.45713753 0.51104987 -0.1916386 0.34844825 0.5009441 0.38667762 0.47499734
0.283972 -0.1989664 0.3790471 0.37625822 0.0 0.49075577 0.0 0.36307028
00000000: ccb7 61bd ee0d ea3e 2ad4 023f e93c 44be
00000010: cf67 b23e df3d 003f 9cfa c53e da32 f33e
00000020: c764 913e d9bd 4bbe 7612 c23e eba4 c03e
00000030: 0000 0000 5744 fb3e 0000 0000 59e4 b93e

dense_38/bias f4 [16]
0.0 0.0 0.0 -0.34108835 -0.0015860813 -0.33057567 0.46625066 0.0
0.660221 0.037353907 0.0 0.0 0.0 0.0 0.3844457 0.0
00000000: 0000 0000 0000 0000 0000 0000 22a3 aebe
00000010: 0fe4 cfba 3741 a9be 68b8 ee3e 0000 0000
00000020: 3e04 293f 6900 193d 0000 0000 0000 0000
00000030: 0000 0000 0000 0000 11d6 c43e 0000 0000

sequential_18/dense_38/MatMul f4 [16, 1]
-0.36996597 -0.49669668 -0.05960697 0.1494104 -0.00022747903 0.4700159 0.35835916 -0.5579542
-0.14770144 0.45956483 -0.26579344 -0.0072757006 -0.16498303 -0.2534811 0.37597418 -0.54741293
00000000: 2e6c bdbe 074f febe 7026 74bd 0aff 183e
00000010: 7087 6eb9 eda5 f03e da7a b73e 16d6 0ebf
00000020: 0c3f 17be 154c eb3e 1416 88be 0069 eebb
00000030: 50f1 28be 46c8 81be b07f c03e 4123 0cbf

sequential_18/dense_39/MatMul f4 [16, 16]
0.148469 0.18999973 0.06553009 -0.34605968 -0.3699973 -0.51038146 -6.988784e-05 0.22768655
-0.07926265 -0.38776052 0.17703548 -0.25838876 -0.4298317 -0.23207654 0.30872044 0.3008168
-0.16468012 0.01847729 0.33125928 -0.50882465 0.27095345 -0.0016536602 0.030525364 -0.3495815
-2.0533645 0.31491268 -0.0044926107 -0.0020170808 -0.23040242 0.23869553 0.11585016 0.08907339
-0.060592502 -0.050898224 -0.06306848 -0.54593337 0.08297288 -0.048156627 0.18694907 0.15801153
-1.4978111 -0.38971117 -0.42529905 0.17758462 0.07449135 -0.395789 0.34643897 0.095151335
0.41355392 -0.2830497 0.3954672 0.2660984 0.112721264 0.48506397 0.1993413 0.42308334
1.3703611 0.4579574 0.1030505 0.21955618 -0.28093952 -0.29675168 0.2213254 0.23859408
-0.27477238 -0.04298997 0.361513 0.5367611 -0.15882197 -0.08157195 -0.37038353 0.32960746
0.2746491 -0.38209715 0.12786576 0.34368023 -0.005900681 0.3556231 0.044110768 -0.12989244
-0.11748287 -0.21889476 0.15548643 -0.29026046 -0.20217605 -0.03061021 0.3402144 0.006064415
-1.9805989 -0.13603278 0.16118446 0.3027937 -0.3623874 0.36890748 -0.037188698 -0.109623045
-0.3684104 -0.04306656 -0.25079054 0.43088937 -0.31554002 0.34237498 -0.3919209 -0.28637987
0.010357587 -0.53539735 0.38315013 -0.322514 -0.27432764 0.14303681 0.116442144 -0.13646242
-0.33410102 -0.07289654 -0.19962059 -0.0064363857 -0.23879738 -0.20396182 0.07680556 -0.04034996
-1.8144869 0.010821567 0.34738895 -0.3716389 0.39058188 -0.08462143 0.17685406 -0.41904745
0.258415 0.27923653 0.19512984 0.4467886 -0.41348603 0.3051098 -0.34033483 -0.13476032
-0.13231692 -0.61329675 0.22627929 0.12686995 -0.31137964 0.1531302 0.20903802 0.34518668
-0.2573785 0.40873954 -0.105799824 0.35843396 -0.03620778 0.438329 0.27932444 -0.36010873
1.6770679 0.2878444 0.30911192 0.010131389 -0.089309454 0.11919859 -0.14924939 -0.37603363
0.025405288 -0.0089096725 -0.3523746 0.18831888 -0.554071 0.20898764 -0.17071979 0.10574511
-0.1686476 -0.61465204 -0.00045394897 0.19601086 0.28056815 -0.4293535 0.14635809 0.0632579
0.15216061 -0.20409112 -0.015885264 0.4591343 0.21917742 -0.184216 -0.47624516 0.34548667
-0.31619936 -0.10485847 0.40264162 0.004206538 0.38390544 -0.08564234 0.26229203 0.3462331
-0.26722968 0.29504886 -0.058876365 0.15373626 0.1152803 -0.13300413 -0.23294374 -0.13636744
-0.32856262 -0.0008675158 0.26174733 0.20606616 -0.22003296 0.097470015 -0.20507023 0.1611413
-0.30852562 -0.030159086 -0.41131574 -0.22425576 0.34675354 -0.25724986 0.06497533 0.41080436
-2.1291506 0.37499934 -0.34671026 -0.26343453 0.2262539 0.14423409 0.0007650631 0.4225931
0.05348745 -0.20219266 -0.27921832 0.15767941 0.41765168 -0.3175001 -0.024308383 0.15582374
-0.31832528 -0.40436253 -0.07000762 0.18868402 -0.0284217 -0.27082074 -0.38571346 0.31439957
-0.21906975 0.34249803 -0.15810013 -0.11560675 -0.1652348 -0.004253922 0.34535357 -0.025023729
-2.40011 0.0019783736 -0.33108628 -0.40909496 0.14959875 -0.2887372 -0.08034845 -0.110887915
00000000: 4208 183e 4a8f 423e a434 863d bc2e b1be
00000010: 4970 bdbe 5ca8 02bf c090 92b8 aa26 693e
00000020: 7554 a2bd 8c88 c6be ca48 353e 884b 84be
00000030: e712 dcbe 79a5 6dbe 9b10 9e3e a904 9a3e
00000040: e8a1 28be b05d 973c d19a a93e 5542 02bf
00000050: 69ba 8a3e a1bf d8ba 5410 fa3c 59fc b2be
00000060: 536a 03c0 3c3c a13e c036 93bb 0031 04bb
00000070: 9dee 6bbe 9a6c 743e d942 ed3d 1c6c b63d
00000080: d82f 78bd a87a 50bd 0c2a 81bd 4ac2 0bbf
00000090: afed a93d e23f 45bd 946f 3f3e c6cd 213e
000000a0: 46b8 bfbf 3988 c7be ccc0 d9be bed8 353e
000000b0: ec8e 983d dba4 cabe 7360 b13e b4de c23d
000000c0: 57bd d33e e4eb 90be ad7a ca3e 0d3e 883e
000000d0: 68da e63d 4e5a f83e 2020 4c3e 619e d83e
000000e0: fe67 af3f 6479 ea3e 240c d33d 56d3 603e
000000f0: 4ed7 8fbe d6ef 97be 20a3 623e 0252 743e
00000100: f7ae 8cbe 4016 30bd 3b18 b93e 2d69 093f
00000110: 3aa2 22be 320f a7bd e9a2 bdbe 4fc2 a83e
00000120: cf9e 8c3e 3da2 c3be 3eef 023e dbf6 af3e
00000130: 805a c1bb 3b14 b63e 7ead 343d 8602 05be
00000140: dc9a f0bd f325 60be d637 1f3e 059d 94be
00000150: 3d07 4fbe 43c2 fabc 9530 ae3e 00b8 c63b
00000160: 4484 fdbf 2d4c 0bbe 8a0d 253e c707 9b3e
00000170: d78a b9be 71e1 bc3e 2d53 18bd 0c82 e0bd
00000180: 4aa0 bcbe 9066 30bd 9e67 80be 889d dc3e
00000190: 768e a1be c64b af3e dba9 c8be 62a0 92be
000001a0: deb2 293c cd0f 09bf 412c c43e 8e20 a5be
000001b0: ac74 8cbe 3e78 123e 3879 ee3d cebc 0bbe
000001c0: 4a0f abbe c84a 95bd 5769 4cbe 51e8 d2bb
000001d0: 4d87 74be 5edb 50be 3c4c 9d3d 0046 25bd
000001e0: 1b41 e8bf f14c 313c f7dc b13e 7447 bebe
000001f0: 59fa c73e 004e adbd 3b19 353e 638d d6be
00000200: f94e 843e 17f8 8e3e 1ed0 473e 7ac1 e43e
00000210: 71b4 d3be 5a37 9c3e 5e40 aebe 9cfe 09be
00000220: 167e 07be 0401 1dbf c2b5 673e 32ea 013e
00000230: 276d 9fbe 2ace 1c3e 100e 563e 4fbc b03e
00000240: 1dc7 83be 4f46 d13e 94ad d8bd a884 b73e
00000250: 9c4e 14bd a96c e03e 9d03 8f3e 2c60 b8be
00000260: 29aa d63f 5760 933e eb43 9e3e 20fe 253c
00000270: e0e7 b6bd 641e f43d d5d4 18be 7b87 c0be
00000280: c01e d03c e0f9 11bc 726a b4be aad6 403e
00000290: 99d7 0dbf db00 563e 2bd1 2ebe e490 d83d
000002a0: f5b1 2cbe d659 1dbf 0000 eeb9 12b7 483e
000002b0: a1a6 8f3e 39d4 dbbe e5de 153e 5c8d 813d
000002c0: fecf 1b3e 43fd 50be d021 82bc a713 eb3e
000002d0: 0c70 603e 1ea3 3cbe 68d6 f3be a1e3 b03e
000002e0: e2e4 a1be 0ac0 d6bd 0b27 ce3e 00d7 893b
000002f0: 418f c43e 4065 afbd 244b 863e 7745 b13e
00000300: 54d2 88be a510 973e 5828 71bd 0a6d 1d3e
00000310: 1418 ec3d 3c32 08be ce88 6ebe e8a3 0bbe
00000320: 5c39 a8be 006a 63ba bf03 863e 0203 533e
00000330: 5250 61be 5c9e c73d eefd 51be 3a02 253e
00000340: 12f7 9dbe 3010 f7bc fa97 d2be 4da3 65be
00000350: ae89 b13e 41b6 83be c911 853d f354 d23e
00000360: 0144 08c0 eaff bf3e 0284 b1be e4e0 86be
00000370: 1aaf 673e 1ab2 133e 848e 483a 1f5e d83e
00000380: a815 5b3d 980b 4fbe b4f5 8ebe b676 213e
00000390: 71d6 d53e 608f a2be 6022 c7bc 4290 1f3e
000003a0: 88fb a2be 9b08 cfbe 2860 8fbd 6236 413e
000003b0: a0d4 e8bc 04a9 8abe 3c7c c5be fbf8 a03e
000003c0: d253 60be e75b af3e 00e5 21be 3bc3 ecbd
000003d0: 5033 29be 7c64 8bbb 2fd2 b03e 90fe ccbc
000003e0: 679b 19c0 9aa7 013b 2484 a9be e574 d1be
000003f0: 6a30 193e 5dd5 93be ba8d a4bd 3419 e3bd

sequential_18/dense_40/MatMul f4 [1, 16]
-0.09154705 -0.57076657 -0.5221555 0.5584275 -0.60475177 -0.8897653 -0.6698582 -0.69180053
-0.6600115 0.43415338 -1.1758068 -0.9559446 0.026634157 -0.7089827 -0.48243433 -0.39241856
00000000: 057d bbbd c21d 12bf fcab 05bf 1bf5 0e3f
00000010: 03d1 1abf a9c7 63bf d47b 2bbf d719 31bf
00000020: 83f6 28bf 5a49 de3e d680 96bf c9b8 74bf
00000030: e02f da3c e47f 35bf a201 f7be 16eb c8be
