ipynb/sine_model_quantized.tflite (tflite, 2784 bytes, 3 tensors)

sequential_18/dense_38/MatMul i1 [16, 1] scale=0.00439334 zero_point=0
000000 ac 8f f2 22 00 6b 52 81 de 69 c4 fe da c6 56 83
       -0.36904058 -0.49644744 -0.061506763 0.14937356 0.0 0.47008738 0.3602539 -0.5579542 -0.14937356 0.4613007 -0.2636004 -0.00878668 -0.16694692 -0.25481373 0.37782726 -0.5491675

sequential_18/dense_39/MatMul i1 [16, 16] scale=0.018898504 zero_point=0
000000 08 0a 03 ee ec e5 00 0c fc eb 09 f2 e9 f4 10 10
       0.15118803 0.18898503 0.056695513 -0.34017307 -0.37797007 -0.5102596 0.0 0.22678205 -0.075594015 -0.3968686 0.17008653 -0.26457906 -0.4346656 -0.22678205 0.30237606 0.30237606
000010 f7 01 12 e5 0e 00 02 ee 93 11 00 00 f4 0d 06 05
       -0.17008653 0.018898504 0.34017307 -0.5102596 0.26457906 0.0 0.037797008 -0.34017307 -2.059937 0.32127458 0.0 0.0 -0.22678205 0.24568056 0.11339103 0.09449252
000020 fd fd fd e3 04 fd 0a 08 b1 eb e9 09 04 eb 12 05
       -0.056695513 -0.056695513 -0.056695513 -0.5480566 0.075594015 -0.056695513 0.18898503 0.15118803 -1.4929818 -0.3968686 -0.4346656 0.17008653 0.075594015 -0.3968686 0.34017307 0.09449252
000030 16 f1 15 0e 06 1a 0b 16 49 18 05 0c f1 f0 0c 0d
       0.41576707 -0.28347754 0.3968686 0.26457906 0.11339103 0.4913611 0.20788354 0.41576707 1.3795907 0.4535641 0.09449252 0.22678205 -0.28347754 -0.30237606 0.22678205 0.24568056
000040 f1 fe 13 1c f8 fc ec 11 0f ec 07 12 00 13 02 f9
       -0.28347754 -0.037797008 0.35907158 0.5291581 -0.15118803 -0.075594015 -0.37797007 0.32127458 0.28347754 -0.37797007 0.13228953 0.34017307 0.0 0.35907158 0.037797008 -0.13228953
000050 fa f4 08 f1 f5 fe 12 00 97 f9 09 10 ed 14 fe fa
       -0.11339103 -0.22678205 0.15118803 -0.28347754 -0.20788354 -0.037797008 0.34017307 0.0 -1.9843429 -0.13228953 0.17008653 0.30237606 -0.35907158 0.37797007 -0.037797008 -0.11339103
000060 ed fe f3 17 ef 12 eb f1 01 e4 14 ef f1 08 06 f9
       -0.35907158 -0.037797008 -0.24568056 0.4346656 -0.32127458 0.34017307 -0.3968686 -0.28347754 0.018898504 -0.5291581 0.37797007 -0.32127458 -0.28347754 0.15118803 0.11339103 -0.13228953
000070 ee fc f5 00 f3 f5 04 fe a0 01 12 ec 15 fc 09 ea
       -0.34017307 -0.075594015 -0.20788354 0.0 -0.24568056 -0.20788354 0.075594015 -0.037797008 -1.8142564 0.018898504 0.34017307 -0.37797007 0.3968686 -0.075594015 0.17008653 -0.41576707
000080 0e 0f 0a 18 ea 10 ee f9 f9 e0 0c 07 f0 08 0b 12
       0.26457906 0.28347754 0.18898503 0.4535641 -0.41576707 0.30237606 -0.34017307 -0.13228953 -0.13228953 -0.6047521 0.22678205 0.13228953 -0.30237606 0.15118803 0.20788354 0.34017307
000090 f2 16 fa 13 fe 17 0f ed 59 0f 10 01 fb 06 f8 ec
       -0.26457906 0.41576707 -0.11339103 0.35907158 -0.037797008 0.4346656 0.28347754 -0.35907158 1.6819669 0.28347754 0.30237606 0.018898504 -0.09449252 0.11339103 -0.15118803 -0.37797007
0000a0 01 00 ed 0a e3 0b f7 06 f7 df 00 0a 0f e9 08 03
       0.018898504 0.0 -0.35907158 0.18898503 -0.5480566 0.20788354 -0.17008653 0.11339103 -0.17008653 -0.6236506 0.0 0.18898503 0.28347754 -0.4346656 0.15118803 0.056695513
0000b0 08 f5 ff 18 0c f6 e7 12 ef fa 15 00 14 fb 0e 12
       0.15118803 -0.20788354 -0.018898504 0.4535641 0.22678205 -0.18898503 -0.4724626 0.34017307 -0.32127458 -0.11339103 0.3968686 0.0 0.37797007 -0.09449252 0.26457906 0.34017307
0000c0 f2 10 fd 08 06 f9 f4 f9 ef 00 0e 0b f4 05 f5 09
       -0.26457906 0.30237606 -0.056695513 0.15118803 0.11339103 -0.13228953 -0.22678205 -0.13228953 -0.32127458 0.0 0.26457906 0.20788354 -0.22678205 0.09449252 -0.20788354 0.17008653
0000d0 f0 fe ea f4 12 f2 03 16 8f 14 ee f2 0c 08 00 16
       -0.30237606 -0.037797008 -0.41576707 -0.22678205 0.34017307 -0.26457906 0.056695513 0.41576707 -2.135531 0.37797007 -0.34017307 -0.26457906 0.22678205 0.15118803 0.0 0.41576707
0000e0 03 f5 f1 08 16 ef ff 08 ef eb fc 0a fe f2 ec 11
       0.056695513 -0.20788354 -0.28347754 0.15118803 0.41576707 -0.32127458 -0.018898504 0.15118803 -0.32127458 -0.3968686 -0.075594015 0.18898503 -0.037797008 -0.26457906 -0.37797007 0.32127458
0000f0 f4 12 f8 fa f7 00 12 ff 81 00 ee ea 08 f1 fc fa
       -0.22678205 0.34017307 -0.15118803 -0.11339103 -0.17008653 0.0 0.34017307 -0.018898504 -2.40011 0.0 -0.34017307 -0.41576707 0.15118803 -0.28347754 -0.075594015 -0.11339103

sequential_18/dense_40/MatMul i1 [1, 16] scale=0.009258321 zero_point=0
000000 f6 c2 c8 3c bf a0 b8 b5 b9 2f 81 99 03 b3 cc d6
       -0.09258321 -0.57401586 -0.51846594 0.55549926 -0.60179085 -0.8887988 -0.6665991 -0.694374 -0.65734076 0.43514106 -1.1758068 -0.953607 0.027774962 -0.7128907 -0.48143268 -0.38884947
